Jupyter/cifar_net.pth (torch_old, 276219 bytes, 10 tensors)

conv1.weight f4 [20, 3, 5, 5]
0.019269377 -0.048633777 -0.07853621 -0.033220284 -0.05590713 0.044067904 -0.059563074 -0.08032085
0.07179077 0.098276734 -0.09370048 0.05682859 0.00442899 -0.004129216 0.00091984123 -0.06356031
0.09510493 0.096120104 -0.025603741 -0.03378723 0.018131107 0.06720458 -0.047413446 -0.09583478
0.03824462 -0.062870726 0.052262068 -0.08226697 0.042026833 0.017360434 0.09340538 0.095465586
-0.06700778 0.03611587 0.046518117 0.018442959 -0.084774226 -0.008721091 0.11053933 -0.02853001
0.05049385 0.06523137 -0.08384943 0.09619035 0.05260369 0.056460932 0.074166134 0.05579552
-0.029305227 0.015141323 -0.026501909 -0.07946606 -0.05314789 0.054383457 0.07328762 -0.11006197
0.01987058 0.06922974 -0.11358593 -0.007479556 0.05674252 -0.037744947 0.049639508 -0.0991997
0.07320231 0.025941834 -0.106623605 0.10400517 -0.08532786 -0.10414798 -0.07951689 -0.105338044
-0.098661445 0.009961814 -0.009827763 -0.0041946247 0.019751474 0.09185347 0.0702938 0.060379595
0.029915363 0.114974454 0.05860339 0.053210497 0.092841655 -0.06515333 0.01746577 -0.060648616
0.041807726 0.03302081 -0.112098314 -0.08500638 -0.10287252 -0.053421468 0.047418654 -0.01774396
-0.027464189 0.02144906 -0.010260053 0.043809086 -0.059127793 0.06862286 -0.023246206 0.08423723
0.010958582 0.10494807 0.06746505 -0.080135375 -0.049352147 0.100792915 0.054639027 0.10273372
0.038516134 0.09940593 -0.097626664 0.07539472 -0.02067057 0.08716069 -0.014498629 -0.044880994
-0.058824163 -0.006821707 -0.052402988 0.058507606 -0.11368922 0.0046716407 -0.054957435 0.030471087
-0.06599046 -0.08475509 0.011114329 0.03411807 -0.015227124 0.10610205 0.062376916 0.029902413
0.053840294 -0.054633237 0.022326529 -0.10179083 -0.004372418 0.06735732 -0.09724128 0.09754519
-0.10614293 0.028407127 0.07619111 -0.06676489 -0.06780954 0.06351933 0.10959637 -0.08327711
0.00076137483 0.020298332 -0.06433378 0.018028244 0.08812603 0.11271228 -0.01936151 -0.006230004
-0.042059243 0.095997825 0.04080996 -0.078579664 0.10722859 -0.0021992624 0.05197549 0.034316227
0.024045005 0.07379663 -0.104722574 0.11368543 -0.019929491 -0.11129625 0.0708078 -0.066768594
0.10912384 0.044718534 -0.047494352 0.109289944 0.00887835 -0.09854959 0.049026623 -0.08708334
-0.088757455 0.021082193 -0.07165027 -0.040103815 0.074477464 0.1101653 -0.08431172 -0.056349967
-0.10091271 -0.11363694 -0.03400623 -0.06769323 -0.11336508 0.08883017 0.023891434 -0.09443624
-0.0586977 -0.07532169 -0.004632175 -0.09884127 0.047204092 -0.105789356 0.034726292 -0.027732097
-0.04099085 0.0012697875 -0.028481513 -0.11433327 -0.08806045 0.113658026 -0.04286991 0.01872231
-0.09603073 -0.006741211 -0.06329204 -0.11189363 -0.09313462 0.046048403 -0.088712014 0.0049631745
-0.045460433 0.046552405 0.019729078 -0.090061955 0.07280262 -0.022454835 0.015676424 0.04651493
-0.06822336 -0.0666895 -0.08768482 0.06669165 -0.082444966 0.07016121 -0.033822015 -0.048208408
-0.04653903 0.04198265 0.08123244 -0.03147567 0.09872778 -0.0025290325 0.09968746 0.0077383146
-0.015163392 0.05287379 -0.11350953 0.099671766 0.0129981935 -0.03781549 -0.052381225 0.07927185
00000000: d0da 9d3c 3634 47bd 98d7 a0bd fe11 08bd
00000010: e0fe 64bd 8c80 343d 69f8 73bd 427f a4bd
00000020: 0a07 933d 5045 c93d 0ae6 bfbd 18c5 683d
00000030: 1021 913b 604e 87bb 8021 713a e82b 82bd
00000040: 60c6 c23d 9eda c43d f0be d1bc 7a64 0abd
00000050: b087 943c 8ea2 893d 9a34 42bd 0645 c4bd
00000060: 64a6 1c3d 5ec2 80bd c010 563d 967b a8bd
00000070: 5424 2c3d 7837 8e3c 524b bf3d 7683 c33d
00000080: 603b 89bd 3cee 133d c889 3e3d b015 973c
00000090: 1c9e adbd e8e2 0ebc 7262 e23d c4b7 e9bc
000000a0: a4d2 4e3d 0698 853d 40b9 abbd 72ff c43d
000000b0: f876 573d 9443 673d 6ae4 973d d889 643d
000000c0: 8411 f0bc 5013 783c 881a d9bc 1abf a2bd
000000d0: 9ab1 59bd 30c1 5e3d d217 963d 2c68 e1bd
000000e0: a0c7 a23c 52c8 8d3d bd9f e8bd 1017 f5bb
000000f0: d86a 683d 729a 1abd cc52 4b3d 3629 cbbd
00000100: 18eb 953d f883 d43c 7a5d dabd aa00 d53d
00000110: 60c0 aebd 894b d5bd c0d9 a2bd 79bb d7bd
00000120: 030f cabd e036 233c a004 21bc 1073 89bb
00000130: d8cd a13c ac1d bc3d 32f6 8f3d 9850 773d
00000140: 1011 f53c ba77 eb3d 1c0a 703d 40f3 593d
00000150: c423 be3d 1c6f 85bd 6014 8f3c af6a 78bd
00000160: 943e 2b3d d440 073d cd93 e5bd d317 aebd
00000170: d4ae d2bd 78d0 5abd 103a 423d c85b 91bc
00000180: 94fc e0bc f0b5 af3c c819 28bc 2871 333d
00000190: fc2f 72bd 248a 8c3d d46e bebc 9284 ac3d
000001a0: a08b 333c 04ef d63d 1e2b 8a3d 041e a4bd
000001b0: 7a25 4abd 846c ce3d 2ccd 5f3d 0e66 d23d
000001c0: 18c3 1d3d 5695 cb3d 7df0 c7bd 8c68 9a3d
000001d0: 5455 a9bc 4e81 b23d a88b 6dbc 22d5 37bd
000001e0: 9bf1 70bd a088 dfbb 84a4 56bd aca5 6f3d
000001f0: e5d5 e8bd 9014 993b 0c1b 61bd 809e f93c
00000200: 0226 87bd 1494 adbd e018 363c 64bf 0b3d
00000210: 307b 79bc 084c d93d f07e 7f3d e8f5 f43c
00000220: a487 5c3d 1ac7 5fbd 20e6 b63c b677 d0bd
00000230: 8046 8fbb a2f2 893d 7026 c7bd c6c5 c73d
00000240: 7761 d9bd 10b6 e83c 160a 9c3d 08bc 88bd
00000250: badf 8abd 6c16 823d 1074 e03d 308d aabd
00000260: 0097 473a b048 a63c 6ec1 83bd f8af 933c
00000270: 6c7b b43d b2d5 e63d 089c 9ebc 1025 ccbb
00000280: 5046 2cbd 829a c43d 5828 273d 60ee a0bd
00000290: aa9a db3d 8021 10bb 40e4 543d 2c8f 0c3d
000002a0: 08fa c43c b022 973d ca78 d6bd e8d3 e83d
000002b0: 2c43 a3bc 4aef e3bd ae03 913d f9bd 88bd
000002c0: 527c df3d c82a 373d 7089 42bd 68d3 df3d
000002d0: 8076 113c 5ed4 c9bd 24d0 483d c058 b2bd
000002e0: 78c6 b5bd 90b4 ac3c 60bd 92bd e643 24bd
000002f0: a487 983d 589e e13d a0ab acbd 39cf 66bd
00000300: 53ab cebd 7cba e8bd 1e4a 0bbd c0a2 8abd
00000310: f32b e8bd 98ec b53d f8b7 c33c ca67 c1bd
00000320: 006d 70bd 4242 9abd 80c9 97bb 4b6d cabd
00000330: 1459 413d 17a8 d8bd 283d 0e3d 6c2e e3bc
00000340: 06e6 27bd 006f a63a 1052 e9bc 9027 eabd
00000350: 0a59 b4bd 8ac5 e83d 5c98 2fbd 885f 993c
00000360: c2ab c4bd 60e5 dcbb 429f 81bd 7d28 e5bd
00000370: 5dbd bebd 409d 3c3d a5ae b5bd 20a2 a23b
00000380: b834 3abd bcad 3e3d e09e a13c 6772 b8bd
00000390: 8a19 953d 34f3 b7bc d86b 803c 7086 3e3d
000003a0: b0b8 8bbd 8194 88bd 1994 b3bd a295 883d
000003b0: e8d8 a8bd aeb0 8f3d f488 0abd 2e76 45bd
000003c0: b69f 3ebd 00f6 2b3d 325d a63d a2ec 00bd
000003d0: ca31 ca3d 20be 25bb f028 cc3d b091 fd3b
000003e0: e06f 78bc 3092 583d af77 e8bd b620 cc3d
000003f0: 60f6 543c 6ae4 1abd b28d 56bd 4859 a23d

conv1.bias f4 [20]
0.07390091 0.037141368 0.09314813 0.030263454 -0.031789765 0.004916869 0.04161507 0.027597904
-0.038757384 -0.004549034 -0.08080216 0.056753427 0.038265526 0.017261595 0.10701351 -0.074495636
-0.016757578 0.0052124187 -0.014827371 0.044067785
00000000: 5c59 973d 8c21 183d 72c4 be3d 10eb f73c
00000010: fc35 02bd b01d a13b 9074 2a3d 0015 e23c
00000020: 10c0 1ebd 1010 95bb 9a7b a5bd 4876 683d
00000030: 50bc 1c3d 3068 8d3c e629 db3d 2b91 98bd
00000040: 3047 89bc f0cc aa3b 80ee 72bc 6c80 343d

conv2.weight f4 [16, 20, 5, 5]
-0.04202238 -0.041061018 0.00915613 0.008673646 0.019132014 0.021624964 -0.011331014 0.018241752
-0.043924805 0.0014634356 -0.03887335 0.0023761392 -0.034965843 -0.010141406 -0.024781568 -0.014361853
0.04097155 0.024029393 0.0085740015 -0.03564044 0.043763038 -0.010852728 0.011595055 -0.024498865
-0.017987208 0.02324916 0.024559196 -0.03612359 0.02973966 0.0056528 0.037346702 0.035275098
0.010668561 0.020226773 0.010297526 -0.0370812 -0.042073034 -0.025775768 0.017185554 0.015847337
-0.009692386 -0.021096492 0.0009748861 -0.025503036 -0.026638495 0.040929 -0.02165395 0.024574127
0.0071484223 0.018813062 0.038005013 0.03731906 0.019320544 0.0024473742 0.024138581 -0.037580866
0.038059924 0.0050556585 -0.028840378 -0.029376175 -0.016822394 -0.040802892 -0.03168864 0.039773475
-0.025889957 -0.03985727 -0.0007201806 -0.033658005 -0.0076610968 -0.011166245 0.011999622 0.028844986
-0.039350934 0.009912781 0.035645958 -0.032981 -0.040643748 -0.008992378 -0.018087195 0.014772132
0.033049542 0.00624983 -0.00230366 0.03527439 -0.039622188 0.034114566 -0.032576147 0.037219245
-0.028891882 0.034961324 0.008649308 -0.02177612 -0.027781457 0.019775141 0.035467688 0.040607344
0.017196707 0.016713303 -0.028139703 -0.04357144 -0.01521646 -0.038591653 -0.040017456 0.034233477
0.035213735 -0.014382223 0.03844781 -0.041640263 0.009522475 0.043019723 0.028667469 -0.0011808574
-0.011928745 0.034619723 0.025608588 -0.044534076 -0.04225992 -0.01372222 0.004716404 -0.041216362
-0.02969595 -0.013406415 -0.035271678 0.012141198 -0.015065815 -0.041968826 -0.03927023 -0.044202268
-0.04124197 0.03909992 0.025045726 0.043614414 0.01578411 0.032921348 0.0033683106 0.021814328
-0.04117774 -0.0031187907 0.026235234 -0.009181317 0.022921164 0.009755593 0.016032994 -0.03842072
-0.03161339 0.03177208 0.01672827 0.0036361888 0.039775934 -0.023943605 0.0134361535 0.026349243
0.043150965 -0.017745022 0.024923775 0.005983755 0.038802456 -0.0329186 -0.021914572 0.021897104
0.005992528 -0.005645968 0.0026607178 0.0016940683 0.038201418 -0.03647445 -6.170198e-05 -0.041727353
0.029295485 0.026039373 0.015957154 0.03503749 0.03233617 -0.018041933 0.0061933547 0.022576842
0.020732913 0.029939178 -0.028181037 0.010141045 0.04461545 0.027247738 0.04110201 -0.0006445274
0.016241059 0.006901253 -0.007960651 0.008841213 -0.025825402 0.027213428 0.01240591 -0.020076165
0.00813501 -0.010306045 0.0058533326 -0.043715466 -0.0019838884 0.022332285 -0.0057191215 0.033292037
-0.0014348142 -0.0167008 -0.017371459 -0.0015788823 -0.031645533 0.031889956 -0.0141041055 0.010569576
0.03790194 0.0396335 -0.0019401535 0.040293302 0.029458698 -0.0014161691 0.024625357 0.020001393
0.030056033 0.034435425 -0.013045222 0.023977857 -0.0020640828 -0.04078138 -0.026459916 0.006569762
-0.0003452152 -0.019419702 -0.04011556 0.002798818 -0.029823126 -0.04194589 -0.0009798445 -0.039821275
-0.017197775 -0.013248008 0.018282715 0.038677525 -0.03369808 -0.010031015 -0.0155784 -0.027454883
0.029799301 -0.0046755075 -0.039286226 0.004030768 0.01621873 -0.024950087 0.020213332 0.036665816
0.024750587 0.0037451535 0.0060479715 0.033186506 -0.033466972 0.007218603 -0.030521419 0.008564651
00000000: a91f 2cbd 992f 28bd 9803 163c e81b 0e3c
00000010: beba 9c3c d626 b13c b8a5 39bc ba6f 953c
00000020: 7fea 33bd c0d0 bf3a a939 1fbd 00b9 1b3b
00000030: 5838 0fbd 2428 26bc b702 cbbc fa4d 6bbc
00000040: c9d1 273d 4ad9 c43c f879 0c3c b6fb 11bd
00000050: df40 333d a4cf 31bc 30f9 3d3c d8b1 c8bc
00000060: e959 93bc 0675 be3c 5e30 c93c 54f6 13bd
00000070: 96a0 f33c 203b b93b dbf8 183d 9f7c 103d
00000080: 30cb 2e3c 9eb2 a53c f4b6 283c 75e2 17bd
00000090: c654 2cbd b427 d3bc b8c8 8c3c 46d2 813c
000000a0: d0cc 1ebc 8dd2 acbc 808f 7f3a beeb d0bc
000000b0: f938 dabc 2ba5 273d a063 b1bc ae4f c93c
000000c0: 503d ea3b da1d 9a3c 25ab 1b3d dfdb 183d
000000d0: 1e46 9e3c 2064 203b 46be c53c 65ee 19bd
000000e0: b9e4 1b3d f0a9 a53b a842 ecbc 4ea6 f0bc
000000f0: 1ecf 89bc ef20 27bd f3cb 01bd 83e9 223d
00000100: 2d17 d4bc 6041 23bd 80ca 3cba fadc 09bd
00000110: f009 fbbb a0f2 36bc 109a 443c 524c ec3c
00000120: 722e 21bd 3869 223c 7f01 123d 1617 07bd
00000130: 0f7a 26bd c454 13bc 992b 94bc d006 723c
00000140: f55e 073d 60cb cc3b 00f9 16bb e17b 103d
00000150: e04a 22bd b7bb 0b3d 916e 05bd 3573 183d
00000160: abae ecbc 9b33 0f3d d4b5 0d3c d563 b2bc
00000170: f095 e3bc 7aff a13c 9146 113d e353 263d
00000180: 1ce0 8c3c 56ea 883c 3c85 e6bc f777 32bd
00000190: 764e 79bc 4812 1ebd 58e9 23bd 6738 0c3d
000001a0: 473c 103d 6aa3 6bbc 737b 1d3d fb8e 2abd
000001b0: 2804 1c3c 7335 303d 0ad8 ea3c 00c7 9aba
000001c0: c870 43bc 69cd 0d3d 1ac9 d13c 5d69 36bd
000001d0: bd18 2dbd 2ad3 60bc 108c 9a3b 7dd2 28bd
000001e0: ec44 f3bc 94a6 5bbc 0979 10bd e0eb 463c
000001f0: 9cd6 76bc 81e7 2bbd d2d9 20bd 700d 35bd
00000200: 57ed 28bd 3d27 203d b22c cd3c 07a5 323d
00000210: ae4d 813c 89d8 063d e0be 5c3b f6b3 b23c
00000220: fda9 28bd a064 4cbb 46eb d63c 3c6d 16bc
00000230: 2ac5 bb3c ecd5 1f3c a057 833c 0b5f 1dbd
00000240: 0b7d 01bd 7123 023d ba09 893c 204d 6e3b
00000250: 17ec 223d 6125 c4bc 5023 5c3c 5eda d73c
00000260: 11bf 303d 025e 91bc f22c cc3c 6013 c43b
00000270: 53ef 1e3d a7d5 06bd 3086 b3bc 8e61 b33c
00000280: f85c c43b d001 b9bb 705f 2e3b 800b de3a
00000290: 1779 1c3d 3c66 15bd 0066 81b8 4dea 2abd
000002a0: 16fd ef3c 8650 d53c 94b8 823c 7983 0f3d
000002b0: ef72 043d adcc 93bc a0f1 ca3b 12f3 b83c
000002c0: 12d8 a93c 0243 f53c ebdb e6bc a026 263c
000002d0: b1be 363d a636 df3c 955a 283d 80f5 28ba
000002e0: f80b 853c e823 e23b 646d 02bc bcda 103c
000002f0: cb8f d3bc b2ee de3c 2842 4b3c c576 a4bc
00000300: b448 053c b0da 28bc 50cd bf3b fd0e 33bd
00000310: 2004 02bb 32f2 b63c 7867 bbbb 3b5d 083d
00000320: 6010 bcba 1ed0 88bc 974e 8ebc 80f2 ceba
00000330: bf9e 01bd 0b9f 023d e814 67bc 042c 2d3c
00000340: 113f 1b3d bd56 223d c04c feba 970a 253d
00000350: 5e53 f13c c09e b9ba 1ebb c93c f6d9 a33c
00000360: 1238 f63c 290c 0d3d a0bb 55bc 366d c43c
00000370: 9045 07bb 600a 27bd 77c2 d8bc 2847 d73b
00000380: 00fe b4b9 1116 9fbc 3750 24bd 606c 373b
00000390: a14f f4bc 74cf 2bbd 206e 80ba a21b 23bd
000003a0: 59e2 8cbc 2c0e 59bc a2c5 953c 536c 1e3d
000003b0: ff06 0abd 2059 24bc 8c3c 7fbc 10e9 e0bc
000003c0: aa1d f43c 0035 99bb 98ea 20bd 8814 843b
000003d0: 24dd 843c 2064 ccbc 6e96 a53c e52e 163d
000003e0: bec1 ca3c 4071 753b 102e c63b 93ee 073d
000003f0: aa14 09bd 088a ec3b 0e08 fabc c052 0c3c

conv2.bias f4 [16]
0.94160086 -0.6501725 0.68326974 -0.06378683 0.17729661 0.17571744 0.74352425 0.34920916
-0.38204572 -0.21459784 -0.022641614 -0.3811012 -0.50194526 -0.3765642 -0.050005227 -0.22188789
00000000: c10c 713f b471 26bf c4ea 2e3f aba2 82bd
00000010: 3e8d 353e 46ef 333e 9b57 3e3f 8bcb b23e
00000020: 7f9b c3be 89bf 5bbe e87a b9bc b21f c3be
00000030: 7c7f 00bf 06cd c0be 48d2 4cbd 9436 63be

fc1.weight f4 [120, 400]
0.022214962 0.003931848 -0.031660367 -0.045925945 0.030551448 0.018696792 -0.034620296 0.043848373
0.054389015 0.00948546 -0.007788267 -0.019146493 0.05922313 0.067954645 0.0133813415 -0.054580342
0.02774229 0.051302537 0.085483864 -0.010938428 -0.03765545 0.0015551049 0.007695523 0.044772595
0.0032222723 -0.0022171936 -0.048980888 -0.05326834 -0.034142945 0.035747584 -0.03179818 -0.0563212
-0.07292342 -0.040055063 -0.05965676 0.038135774 0.019909196 -0.013590151 -0.031738143 0.020865925
-0.01797554 -0.010185037 0.010866357 0.07460441 0.005846643 -0.05714113 -0.02829333 0.020390878
-0.0071532596 -0.0045081307 -0.01281622 0.009288045 -0.014349913 -0.030703494 0.0060737343 -0.048250947
0.02675832 -0.034391645 -0.028052373 -0.03481239 -0.057608064 0.026506597 0.03371102 -0.052647915
0.00068451214 0.02158408 0.03878877 -0.009385175 -0.017410753 0.012126303 -0.040376667 -0.053011596
-0.044245396 0.038789507 0.024997275 -0.04305731 0.009465458 -0.055312954 -0.034853954 -0.0070155733
-0.040478952 0.033829633 -0.008466223 -0.041112144 0.016210224 -0.043275457 -0.008887285 -0.011398965
0.022182534 0.026634028 -0.0077986564 -0.05731406 -0.0030530833 -0.03446571 -0.03733032 -0.06133807
-0.06152772 0.032139134 0.008500524 -0.016357929 -0.02207559 0.03487151 -0.016935222 -0.015403368
-0.019221129 -0.022127641 -0.004294088 -0.049603518 0.007825223 -0.036897544 -0.0033196534 0.0046201805
-0.030534238 -0.008518478 -0.026396431 0.025233287 -0.009527834 0.026796252 0.035802867 0.062314436
-0.076699056 -0.035884764 -0.04093233 -0.032195587 -0.012949809 -0.042401362 -0.060249195 -0.017472776
0.007801846 0.035107214 -0.01532868 -0.05393627 -0.05176864 -0.016239004 -0.0384731 0.005737713
-0.023180934 -0.046887428 -0.061737373 0.012874476 -0.010544367 0.0060618506 -0.046203997 -0.039764233
0.016226402 -0.029892303 0.052372463 -0.06524845 -0.031119669 -0.020319285 -0.045420293 -0.049676873
-0.0023486584 0.033610698 -0.022291694 -0.04551095 -0.009118982 -0.027690649 -0.038400806 -0.04975814
-0.022885887 0.059954148 -0.048302844 0.037457995 -0.032330133 -0.040895075 -0.029209223 -0.011423237
0.030252311 -0.059440076 -0.025988061 0.025362348 -0.054271914 -0.039367896 0.0023701417 0.012699664
-0.009258715 0.0013465692 -0.03271195 0.00417837 -0.07070064 0.031495817 -0.041558534 0.013074254
-0.045958254 -0.01929272 -0.0067793494 -0.018293358 -0.0067536538 -0.014539855 -0.037801564 -0.02613623
-0.0075050974 -0.035323124 0.021961002 -0.082674794 -0.050775234 -0.0460299 0.021159384 -0.049651824
0.0057731355 -0.040589493 -0.026405288 0.01803543 -0.0015626044 -0.02070697 -0.034676265 0.025417047
0.017472792 -0.05054368 -0.051156234 -0.03474538 0.009901479 -0.033277135 0.024269128 -0.012125888
0.02127028 -0.0028560031 -0.0035298723 0.020988269 0.04816106 0.024283243 -0.05667431 -0.05940934
-0.009702332 -0.0076584155 0.004882832 0.010717868 -0.03817502 -0.021177942 0.0046121734 0.030676158
-0.010483128 -0.055345733 -0.03418783 0.025250887 -0.031461615 -0.0108494265 -0.028378122 -0.0071433834
0.023187721 0.012165935 0.01439422 -0.0025746503 -0.017170828 0.01962972 -0.019604325 0.013105625
-0.027676318 -0.037013914 -0.042637255 0.022358712 -0.061950915 -0.013434341 -0.03182442 -0.010668309
00000000: 27fc b53c bbd6 803b 4dae 01bd d81c 3cbd
00000010: 0847 fa3c 042a 993c 03ce 0dbd 5a9a 333d
00000020: 04c7 5e3d e768 1b3c b834 ffbb 1bd9 9cbc
00000030: f493 723d ce2b 8b3d 6a3d 5b3c a38f 5fbd
00000040: cd43 e33c 9c22 523d 2a12 af3d 1837 33bc
00000050: 9a3c 1abd a9d4 cb3a ba2a fc3b 7863 373d
00000060: c22c 533b 564e 11bb 2fa0 48bd e72f 5abd
00000070: 79d9 0bbd 0f6c 123d cf3e 02bd 0fb1 66bd
00000080: e058 95bd c710 24bd a65a 74bd 4234 1c3d
00000090: 9c18 a33c 3aa9 5ebc dbff 01bd 04ef aa3c
000000a0: 7141 93bc 24df 26bc ce08 323c 32ca 983d
000000b0: 3295 bf3b d10c 6abd 6ac7 e7bc c50a a73c
000000c0: e465 eabb f1b8 93bb 1ffb 51bc e22c 183c
000000d0: e61b 6bbc e585 fbbc 2d06 c73b c9a2 45bd
000000e0: 4434 db3c 41de 0cbd 17ce e5bc 7097 0ebd
000000f0: 6ff6 6bbd 5d24 d93c 9114 0a3d 57a5 57bd
00000100: d570 333a 19d1 b03c f9e0 1e3d 47c4 19bc
00000110: ffa0 8ebc 67ad 463c 0162 25bd b022 59bd
00000120: a93a 35bd bfe1 1e3d 16c7 cc3c dd5c 30bd
00000130: 0215 1b3c d68f 62bd 05c3 0ebd e5e2 e5bb
00000140: 42cd 25bd f190 0a3d eab5 0abc 3565 28bd
00000150: 4ecb 843c 9b41 31bd fa9b 11bc b9c2 3abc
00000160: 25b8 b53c 9b2f da3c df8b ffbb 26c2 6abd
00000170: 3d16 48bb eb2b 0dbd ade7 18bd a13d 7bbd
00000180: 7e04 7cbd 53a4 033d c845 0b3c 1001 86bc
00000190: ded7 b4bc 6ed5 0e3d bcbb 8abc 685e 7cbc
000001a0: a175 9dbc 0745 b5bc 6cb5 8cbb 0f2d 4bbd
000001b0: 5d35 003c e121 17bd 8b8e 59bb e264 973b
000001c0: f022 fabc 1691 0bbc 543d d8bc 0ab6 ce3c
000001d0: a21a 1cbc d083 db3c 07a6 123d 6c3d 7f3d
000001e0: 6514 9dbd e7fb 12bd a9a8 27bd 85df 03bd
000001f0: 702b 54bc 0dad 2dbd dcc7 76bd 1123 8fbc
00000200: a1a6 ff3b 95cc 0f3d 2525 7bbc 47ec 5cbd
00000210: 5a0b 54bd a907 85bc f895 1dbd 6d03 bc3b
00000220: f1e5 bdbc 080d 40bd 54e0 7cbd 77ef 523c
00000230: 48c2 2cbc 7da2 c63b 6740 3dbd d2df 22bd
00000240: 3bed 843c b4e0 f4bc 8284 563d fba0 85bd
00000250: adee febc a174 a6bc a10a 3abd fa79 4bbd
00000260: f3eb 19bb 5fab 093d 129d b6bc b169 3abd
00000270: c867 15bc 80d7 e2bc 2a4a 1dbd 31cf 4bbd
00000280: 2f7b bbbc 7b92 753d 34d9 45bd 8e6d 193d
00000290: 9a6c 04bd 9881 27bd 2e48 efbc 8728 3bbc
000002a0: b2d3 f73c 7077 73bd eae4 d4bc b3c4 cf3c
000002b0: 3a4c 5ebd 3b40 21bd 6154 1b3b 4012 503c
000002c0: deb1 17bc 5d7f b03a f7fc 05bd b5ea 883b
000002d0: 7fcb 90bd c201 013d 4839 2abd 6535 563c
000002e0: b93e 3cbd c40b 9ebc 4e25 debb f4db 95bc
000002f0: c14d ddbb 9238 6ebc d0d5 1abd a61b d6bc
00000300: 52ed f5bb fbae 10bd 8fe7 b33c 6751 a9bd
00000310: b1f9 4fbd d989 3cbd 7256 ad3c b65f 4bbd
00000320: 922c bd3b 2b41 26bd e74f d8bc 0abf 933c
00000330: 4ed0 ccba aaa1 a9bc b308 0ebd 6937 d03c
00000340: 1a23 8f3c e406 4fbd 3389 51bd 2c51 0ebd
00000350: d039 223c 9b4d 08bd 0dd0 c63c a9ab 46bc
00000360: 033f ae3c c82b 3bbb 6e55 67bb 97ef ab3c
00000370: 8844 453d a7ed c63c 5223 68bd 3557 73bd
00000380: 88f6 1ebc 72f3 fabb 2a00 a03b ff99 2f3c
00000390: 695d 1cbd 5d7d adbc b721 973b 914c fb3c
000003a0: 6dc1 2bbc 35b2 62bd 8a08 0cbd f3da ce3c
000003b0: e5dd 00bd cbc1 31bc 3c79 e8bc 0b13 eabb
000003c0: 2df4 bd3c a153 473c bcd5 6b3c 77bb 28bb
000003d0: d6a9 8cbc 82ce a03c 4099 a0bc fab8 563c
000003e0: 72b9 e2bc e79b 17bd 67a4 2ebd 9e29 b73c
000003f0: 3ec0 7dbd b61b 5cbc 535a 02bd 22ca 2ebc

fc1.bias f4 [120]
-0.009182045 0.02225062 0.029466925 0.17057621 -0.037093397 -0.0038462197 0.09585519 0.048765942
-0.08703984 0.20696793 0.16161598 0.10566773 0.13181242 -0.016209638 0.09884051 0.11265923
-0.030943695 0.037187107 0.048525725 0.040436804 0.19966331 0.03726261 0.12722988 -0.25355747
-0.00950293 0.0061940704 0.053484708 -0.049727526 0.024097692 -0.01580443 -0.00888368 -0.08805014
0.056888938 -0.06292949 -0.110393375 0.10364351 -0.16255157 0.09414879 0.043987107 -0.04527433
-0.010490784 0.07198497 -0.040609483 0.04508567 -0.020732427 -0.0026512675 -0.03181095 -0.04388885
0.08803579 0.046690386 -0.0767632 0.038617104 0.037054773 -0.022020804 -0.0036058272 -0.12001296
-0.01258018 0.26009706 0.111485295 0.14529243 -0.02640339 0.012854215 -0.004100262 0.08967475
0.034497302 0.047252845 -0.04831318 -0.03284572 -0.02939489 -0.16577117 0.115084894 0.24945478
-0.025215479 -0.026657946 0.106737494 -0.037133027 0.057408713 0.005514862 0.00469303 -0.016244318
0.11164691 -0.022581406 0.040132664 -0.024057835 0.21855713 0.0954766 0.05806139 0.08780649
0.011161216 -0.024828946 0.0020784421 0.041282196 -0.018596884 0.06463608 -0.023001028 -0.024880389
-0.03748854 0.04624376 -0.021490736 -0.0036512045 0.026504757 0.028328354 0.08676319 0.0096473405
0.018047502 -0.027122568 0.09424969 -0.058065258 -0.034672983 0.04856139 0.10844803 -0.089052595
-0.023959711 0.11411087 0.026664797 0.025736982 0.071441546 0.007635156 -0.011689579 0.038991977
00000000: 4a70 16bc ef46 b63c 9f64 f13c 88ab 2e3e
00000010: 3fef 17bd dc10 7cbb ba4f c43d ccbe 473d
00000020: f241 b2bd 67ef 533e a97e 253e 5368 d83d
00000030: d6f9 063e 13ca 84bc e56c ca3d e2b9 e63d
00000040: a27d fdbc 8251 183d e9c2 463d 10a1 253d
00000050: 8a74 4c3e aea0 183d 8d48 023e 49d2 81be
00000060: 2db2 1bbc a1f7 ca3b c812 5b3d 17af 4bbd
00000070: 8668 c53c 4b78 81bc db8c 11bc a253 b4bd
00000080: 6004 693d 2de1 80bd ec15 e2bd 0c43 d43d
00000090: eb73 26be 15d1 c03d d32b 343d 9371 39bd
000000a0: 8ae1 2bbc db6c 933d 2156 26bd c0ab 383d
000000b0: 0dd7 a9bc e3c0 2dbb 334c 02bd cbc4 33bd
000000c0: 1c4c b43d 6b3e 3f3d 0636 9dbd f82c 1e3d
000000d0: bfc6 173d f964 b4bc be4f 6cbb 5bc9 f5bd
000000e0: 191d 4ebc 712b 853e 6752 e43d 8ac7 143e
000000f0: ec4b d8bc 7c9a 523c 7e5b 86bb 65a7 b73d
00000100: 0b4d 0d3d 338c 413d 0be4 45bd 3c89 06bd
00000110: 8dcd f0bc ebbf 29be a1b1 eb3d 1371 7f3e
00000120: b190 cebc c461 dabc 3099 da3d cd18 18bd
00000130: 6625 6b3d 04b6 b43b fdc7 993b ce12 85bc
00000140: 23a7 e43d a4fc b8bc 2662 243d f014 c5bc
00000150: 71cd 5f3e 3c89 c33d c8d1 6d3d e4d3 b33d
00000160: 88dd 363c 1366 cbbc 7936 083b 8517 293d
00000170: 7e58 98bc ec5f 843d a76c bcbc f5d1 cbbc
00000180: 958d 19bd 196a 3d3d 570d b0bc 0c49 6fbb
00000190: 8120 d93c dd10 e83c e6b0 b13d e10f 1e3c
000001a0: 5bd8 933c 2630 debc fb05 c13d d6d5 6dbd
000001b0: 4205 0ebd 4fe8 463d 001a de3d 3561 b6bd
000001c0: 2847 c4bc f6b2 e93d 2270 da3c 5dd6 d23c
000001d0: f24f 923d 5530 fa3b a685 3fbc 0db6 1f3d

fc2.weight f4 [84, 120]
0.057898767 -0.0022519056 0.05297363 0.015578412 0.01299741 0.019608762 0.044114128 0.007149096
-0.06578808 -0.1279957 -0.016400967 -0.008515823 -0.08649086 -0.06514358 -0.051871203 -0.09704988
0.032279793 -0.0553129 0.04726903 -0.07640602 -0.0056140586 -0.06366353 -0.04334803 0.067655616
-0.058405556 -0.0007717382 -0.009801572 0.057404425 -0.026928576 0.13154218 -0.016645165 -0.0008831182
0.021867216 -0.04283798 0.09782354 0.003335866 0.09877149 -0.050045736 0.09381898 -0.05767615
0.111980274 -0.07959789 -0.06838503 0.020122163 0.06449087 -0.00024703544 -0.042555153 0.052544724
0.050061494 0.12785533 0.032465577 0.035711817 -0.016671767 0.08976788 -0.047371175 0.11207178
0.006809522 -0.054003928 0.10970363 -0.07833494 -0.07312572 -0.0231246 -0.030354831 0.03446008
-0.052287463 0.007645297 0.0024387555 0.042793196 0.033893004 0.08186382 -0.036143288 -0.0067287395
-0.12281572 -0.16119006 0.11643125 -0.063856654 0.0021988982 0.14605628 0.0696713 0.016960856
0.0063948655 0.016560597 0.09138996 -0.054490097 0.040210523 -0.031394236 0.028062638 -0.014329243
0.074166894 0.049712803 0.092015654 -0.0423946 -0.076896116 0.08125277 0.090428255 -0.029713828
0.06019525 0.17542917 -0.045014124 0.08094383 0.02121665 -0.052997336 0.10377368 -0.08733153
-0.050180458 -0.01307655 0.06924598 0.0015469043 -0.11979657 0.03650404 0.06417535 0.094384216
-0.013097758 -0.09455208 0.050313223 -0.089074835 -0.1134665 -0.0038670585 0.137864 0.0474985
0.015116084 -0.08774751 0.02390562 0.012553578 -0.16960447 -0.0651312 0.0020572254 0.0024725376
0.13894202 -0.053772733 -0.07436289 -0.0584418 0.044674747 0.023623725 0.07313902 0.15060613
-0.05510788 -0.0148414755 -0.0295638 0.09696149 0.043854125 0.032200817 -0.020415748 -0.043053854
0.091342986 0.059462372 -0.062050913 -0.04474927 -0.077647746 -0.055127267 0.039772317 -0.027626961
0.05624232 -0.015002784 -0.06842852 -0.09055667 -0.07383936 -0.04078894 0.06896265 0.0033546628
-0.0785491 0.04768525 -0.08346236 -0.048454028 -0.081298314 -0.04069149 -0.08651801 0.03212284
-0.0050489637 -0.05070213 0.020336965 0.04070719 0.03137299 0.062343467 0.08028381 0.0059479633
-0.052538343 0.08186128 -0.0009416044 -0.052783664 -0.033648863 0.07330374 -0.11707291 0.01191561
0.059087124 -0.04207224 -0.04047636 0.0023996667 -0.022132305 -0.08093729 0.034772854 0.052897424
0.040829547 -0.07545918 -0.054679755 0.09006834 -0.00041759803 -0.031239517 -0.031224338 -0.088655464
-0.08230441 -0.083851285 0.11427071 -0.12815809 0.009243789 -0.11539474 -0.08587683 0.022117417
0.015577892 -0.10586032 -0.0036928868 -0.06845338 0.04769196 -0.037379812 -0.030802403 -0.064328894
-0.022049641 0.024231847 0.014923766 -0.066055775 -0.027286138 -0.066355355 -0.092056245 0.08860456
0.007138572 0.024781179 0.048591033 -0.044211473 -0.023942793 0.036847316 -0.047441617 -0.107950605
-0.100783534 0.025545724 0.006817251 0.08070426 0.025852783 -0.0145873 0.00081477186 0.002925998
-0.06023194 -0.08357868 -0.08996612 0.085147806 0.05903162 0.071926475 0.0022636997 0.037446294
-0.06335067 -0.038704533 -0.056711264 -0.022945622 0.07604673 0.03453692 -0.0930348 0.015634311
00000000: 4227 6d3d b594 13bb e1fa 583d 993c 7f3c
00000010: 17f3 543c 8ea2 a03c 04b1 343d f742 ea3b
00000020: e7bb 86bd 4e11 03be 525b 86bc f385 0bbc
00000030: 1f22 b1bd ff69 85bd e676 54bd 16c2 c6bd
00000040: d137 043d c88f 62bd 2c9d 413d c27a 9cbd
00000050: 23f6 b7bb 0662 82bd b48d 31bd 078f 8a3d
00000060: aa3a 6fbd 794e 4aba c696 20bc e720 6b3d
00000070: 5199 dcbc feb2 063e 715b 88bc 0f81 67ba
00000080: e022 b33c e176 2fbd b557 c83d 8b9e 5a3b
00000090: b548 ca3d c2fc 4cbd 2a24 c03d d43d 6cbd
000000a0: ea55 e53d 3804 a3bd 730d 8cbd 3cd7 a43c
000000b0: ca13 843d 8984 81b9 504e 2ebd 2339 573d
000000c0: 480d 4d3d 82ec 023e a0fa 043d 8e46 123d
000000d0: 3b93 88bc 39d8 b73d 4708 42bd e485 e53d
000000e0: 6922 df3b 3933 5dbd 4cac e03d 126e a0bd
000000f0: f0c2 95bd cd6f bdbc b2aa f8bc 0326 0d3d
00000100: 612b 56bd 6685 fa3b 87d3 1f3b eb47 2f3d
00000110: 64d3 0a3d 38a8 a73d fc0a 14bd c27c dcbb
00000120: cf86 fbbd 020f 25be 8273 ee3d 47c7 82bd
00000130: 641b 103b c78f 153e d4af 8e3d 7ef1 8a3c
00000140: 058c d13b 17aa 873c a92a bb3d 0231 5fbd
00000150: cab3 243d 3e97 00bd 9ee3 e53c 34c5 6abc
00000160: d0e4 973d a79f 4b3d b472 bc3d f6a5 2dbd
00000170: b67b 9dbd da67 a63d 7332 b93d 6a6a f3bc
00000180: 4b8f 763d b4a3 333e bb60 38bd e1c5 a53d
00000190: 8ace ad3c bc13 59bd 4c87 d43d e0da b2bd
000001a0: 068a 4dbd 073f 56bc d6d0 8d3d 7fc1 ca3a
000001b0: e757 f5bd 4385 153d 5e6e 833d 834c c13d
000001c0: fb97 56bc 85a4 c1bd 3d15 4e3d de6c b6bd
000001d0: 2061 e8bd 7a6e 7dbb 382c 0d3e ca8d 423d
000001e0: 74a9 773c f7b4 b3bd b8d5 c33c 86ad 4d3c
000001f0: cbac 2dbe 8263 85bd 84d2 063b 4c0a 223b
00000200: d146 0e3e cc40 5cbd 924b 98bd ab60 6fbd
00000210: defc 363d 8b86 c13c e9c9 953d 7e38 1a3e
00000220: cdb8 61bd a929 73bc c82f f2bc bf93 c63d
00000230: 62a0 333d 01e5 033d ed3e a7bc 3d59 30bd
00000240: 0812 bb3d d18e 733d 1929 7ebd 034b 37bd
00000250: c805 9fbd 21cd 61bd 4ce8 223d f051 e2bc
00000260: 595e 663d 3dce 75bc 4024 8cbd c775 b9bd
00000270: 1739 97bd 4e12 27bd 4a3c 8d3d e7d9 5b3b
00000280: 5ade a0bd 9c51 433d 50ee aabd bb77 46bd
00000290: bb7f a6bd 1fac 26bd 5b30 b1bd 3d93 033d
000002a0: c771 a5bb 09ad 4fbd b599 a63c 95bc 263d
000002b0: f780 003d dd5b 7f3d d76b a43d 22e7 c23b
000002c0: 7232 57bd e3a6 a73d 00d6 76ba af33 58bd
000002d0: 64d3 09bd 4520 963d ecc3 efbd b139 433c
000002e0: 5705 723d f153 2cbd 8aca 25bd ba43 1d3b
000002f0: cf4e b5bc 73c2 a5bd fb6d 0e3d f8aa 583d
00000300: e23c 273d 588a 9abd e1f7 5fbd c075 b83d
00000310: 0ff1 dab9 04ea ffbc 2fca ffbc ff90 b5bd
00000320: 378f a8bd 39ba abbd c306 ea3d e03b 03be
00000330: 4373 173c 1454 ecbd 31e0 afbd 962f b53c
00000340: 6a3a 7f3c 4ccd d8bd 5c04 72bb 4931 8cbd
00000350: a558 433d 931b 19bd 5255 fcbc debe 83bd
00000360: 73a1 b4bc de81 c63c d082 743c 4048 87bd
00000370: 2e87 dfbc 51e5 87bd fc87 bcbd 4f76 b53d
00000380: afea e93b e601 cb3c 6407 473d 1717 35bd
00000390: ad23 c4bc 36ed 163d 2452 42bd 3515 ddbd
000003a0: 9967 cebd 4445 d13c 3f63 df3b 4648 a53d
000003b0: 37c9 d33c 92ff 6ebc 6a96 553a 1ac2 3f3b
000003c0: c4b5 76bd 4d2b abbd 2840 b8bd f961 ae3d
000003d0: 24cb 713d 304e 933d 945a 143b 4961 193d
000003e0: ffbd 81bd a588 1ebd 124a 68bd 75f8 bbbc
000003f0: 63be 9b3d 9676 0d3d 0789 bebd 8713 803c

fc2.bias f4 [84]
-0.13496938 0.0061066947 -0.08904549 -0.0014735301 -0.051066495 0.09200459 0.19165224 0.191813
-0.13120778 -0.0940998 0.12017107 0.08979085 0.098131955 0.21169487 -0.0074357665 -0.11604779
0.19130202 0.13150886 -0.015467264 0.104430266 -0.049494747 0.033663053 0.2589314 -0.11296091
0.12483316 0.0346688 0.04953331 -0.07783219 0.09827699 -0.07602638 0.0776575 0.067225866
0.0868669 -0.043859668 -0.115444764 -0.12575552 0.14610611 0.107737936 0.08877495 0.09334226
0.16377042 0.049752563 0.10274876 0.031553 0.07148291 -0.059568953 0.049611382 0.2248236
-0.04438871 0.091984436 -0.009409884 0.12520614 0.02026209 0.14009872 0.27004424 -0.048212565
-0.019248238 0.5391583 0.13089028 0.18393657 0.11453413 -0.0030269304 0.2895268 0.0867263
0.008823843 0.059039753 0.16787086 -0.18073294 0.16686569 0.3302757 0.18312833 0.05623299
0.0453826 -0.011624669 0.36472896 -0.15707348 0.082359076 0.010432117 -0.04906668 -0.06902969
0.023117859 0.12650515 0.12978931 -0.036132954
00000000: 6a35 0abe ab1a c83b 7b5d b6bd 7723 c1ba
00000010: 1a2b 51bd e76c bc3d 7c40 443e a16a 443e
00000020: 555b 06be 65b7 c0bd 401c f63d 44e4 b73d
00000030: 68f9 c83d 8ac6 583e bba7 f3bb 77aa edbd
00000040: ade4 433e 42aa 063e 686a 7dbc 89df d53d
00000050: 01bb 4abd 45e2 093d a892 843e 0d58 e7bd
00000060: 87a8 ff3d df00 0e3d 71e3 4a3d 7c66 9fbd
00000070: 7245 c93d b8b3 9bbd e50a 9f3d b7ad 893d
00000080: 46e7 b13d 32a6 33bd 4e6e ecbd 0ec6 00be
00000090: d79c 153e b5a5 dc3d a4cf b53d 3a2a bf3d
000000a0: 6fb3 273e 58c9 4b3d f16d d23d b83d 013d
000000b0: a265 923d 93fe 73bd 4e35 4b3d 2838 663e
000000c0: f0d0 35bd 5662 bc3d ea2b 1abc 0a36 003e
000000d0: affc a53c 0a76 0f3e 3d43 8a3e 8a7a 45bd
000000e0: 7bae 9dbc 4706 0a3f 1a08 063e de59 3c3e
000000f0: df90 ea3d 775f 46bb db3c 943e 8f9d b13d
00000100: e191 103c abd3 713d 57e6 2b3e 0e12 39be
00000110: d7de 2a3e e619 a93e fe85 3b3e 9054 663d
00000120: 1be3 393d 6575 3ebc c1bd ba3e dfd7 20be
00000130: e0ab a83d 78eb 2a3c 25fa 48bd 705f 8dbd
00000140: aa61 bd3c 918a 013e 7de7 043e 2600 14bd

fc3.weight f4 [10, 84]
0.018458605 0.07893077 -0.035503615 0.18793036 -0.004659538 0.06158411 0.17685309 -0.054685462
0.19664685 0.033746827 -0.06332257 -0.020081567 0.23286204 0.19456196 -0.034536075 0.01973391
-0.043405224 0.07172546 0.019859696 -0.057334784 -0.07109957 -0.13069059 -0.09249471 -0.0950578
-0.22799543 -0.08306527 -0.1169353 -0.08807962 -0.042549126 0.1443724 0.14338945 0.044668037
-0.0836029 0.13776945 0.040358566 -0.02129241 -0.020305265 -0.1270228 0.12585713 -0.06635048
-0.11866327 0.19423369 0.15742117 -0.049209513 0.02587898 -0.047804646 0.02439877 0.12563162
-0.10043664 -0.14103223 0.09339029 -0.13923799 0.10898322 0.14822924 -0.21247876 0.22749472
-0.064683795 -0.33487594 0.18159966 -0.19668806 -0.052679233 0.06799769 -0.17074223 -0.098283224
0.14946964 0.04291562 0.3059519 0.059407316 0.11218579 -0.15907374 0.033404108 0.15203033
0.053373825 -0.022866623 0.040393967 0.06903858 0.091229945 0.063570365 0.06779438 -0.03740472
0.26651847 0.24829237 -0.13622189 0.18500967 0.27558315 0.01867998 0.029957911 0.005833679
-0.060658168 -0.10022488 0.11272217 -0.27198267 0.19186313 -0.10069847 -0.13969694 0.10074823
-0.019556984 -0.033631496 0.16191085 -0.088544115 0.13469772 0.28641748 0.07364354 -0.15109152
-0.047969498 0.04627768 -0.24462727 -0.088947825 0.2067853 -0.036257446 -0.114563815 -0.07049298
-0.037912693 -0.010638571 -0.0018856205 0.017442884 0.06255513 0.07090562 0.13237686 0.054962847
0.19829051 0.18008193 0.25660983 -0.06936663 -0.12423747 0.14512326 0.0003162278 -0.09245238
0.27840066 0.07735544 0.21416137 0.077474505 -0.14688355 -0.18374594 -0.13846801 -0.0989151
-0.22085024 0.062350184 -0.22127177 -0.057204675 0.035837173 -0.24102136 -0.21761386 -0.08306413
-0.12619118 -0.07423825 -0.11397292 -0.008958382 -0.11511571 -0.13823828 -0.0016786272 0.07226203
-0.07236002 -0.034752414 -0.15492 -0.024750758 -0.037781104 0.24975131 -0.017161684 0.22639391
-0.31556156 0.0773283 0.053254034 0.009046286 0.13013533 -0.18212362 -0.008394487 -0.1289891
-0.025591303 -0.12597467 -0.090425946 -0.006924579 -0.04504702 0.1399239 -0.044809677 0.16133496
-0.18564434 0.058881927 -0.021336798 0.034599893 0.06579303 -0.12250384 -0.11140618 -0.13090077
-0.14931157 -0.17566748 0.014297199 0.10572978 0.0045272605 -0.117505416 0.10521568 0.23162162
-0.07399036 0.010201773 0.050322924 -0.02620076 0.028196186 0.124480255 0.2365415 0.117536165
-0.026080975 0.30173606 0.082936846 0.09866725 -0.08619137 0.03737551 0.0015558428 0.03092505
-0.059983596 -0.2207533 -0.093937725 0.23579212 -0.17437899 0.006268301 -0.04454191 0.1109024
-0.16181539 0.12579744 -0.02647004 0.1162708 0.1159351 0.11238183 0.25279045 0.10945499
0.06266834 0.03503525 0.08394657 -0.10210096 -0.04618913 -0.0028126198 0.11265276 0.13428716
0.1450476 -0.14521144 -0.13947415 0.008883191 0.03770828 0.13597392 0.27802724 0.07376864
0.021331072 -0.023841137 0.025117528 0.003872306 0.06453868 -0.05736271 -0.10320847 -0.0018966952
0.13364893 0.09186409 -0.1422853 0.18637876 -0.03426855 0.090500854 0.01745682 -0.0745391
00000000: 8036 973c 75a6 a13d 3d6c 11bd d170 403e
00000010: 0aaf 98bb 9f3f 7c3d fa18 353e ddfd 5fbd
00000020: cb5d 493e 1d3a 0a3d 43af 81bd 1982 a4bc
00000030: 6373 6e3e 403b 473e b375 0dbd 02a9 a13c
00000040: adc9 31bd cce4 923d cdb0 a23c e1d7 6abd
00000050: a79c 91bd c1d3 05be de6d bdbd aaad c2bd
00000060: a277 69be 201e aabd c67b efbd 1663 b4bd
00000070: fe47 2ebd 5cd6 133e afd4 123e d5f5 363d
00000080: ff37 abbd 6f13 0d3e 064f 253d 6c6d aebc
00000090: 3a57 a6bc 4412 02be b1e0 003e c3e2 87bd
000000a0: ba05 f3bd 32e5 463e 0433 213e ea8f 49bd
000000b0: 2800 d43c cece 43bd eedf c73c 93a5 003e
000000c0: bab1 cdbd c16a 10be 6943 bf3d 6794 0ebe
000000d0: 9832 df3d 68c9 173e 0894 59be 60f4 683e
000000e0: f078 84bd dc74 abbe 43f5 393e 9868 49be
000000f0: 2ec6 57bd 5f42 8b3d 0dd7 2ebe b748 c9bd
00000100: 920e 193e 4ac8 2f3d baa5 9c3e 1655 733d
00000110: aac1 e53d 3ae4 22be bfd2 083d d7ad 1b3e
00000120: 839e 5a3d c952 bbbc 2574 253d 1964 8d3d
00000130: c4d6 ba3d 2e31 823d c8d7 8a3d b135 19bd
00000140: 1c75 883e 5b40 7e3e c07d 0bbe 2d73 3d3e
00000150: 3c19 8d3e c206 993c 4b6a f53c 7228 bf3b
00000160: b374 78bd b442 cdbd e2da e63d 5041 8bbe
00000170: c577 443e 003b cebd b70c 0fbe 1755 ce3d
00000180: f835 a0bc 2ec1 09bd f5cb 253e 9e56 b5bd
00000190: 33ee 093e 50a5 923e 6dd2 963d bcb7 1abe
000001a0: aa7b 44bd aa8d 3d3d 927f 7abe 472a b6bd
000001b0: 87bf 533e b082 14bd 6fa0 eabd a05e 90bd
000001c0: 574a 1bbd 674d 2ebc ed26 f7ba 61e4 8e3c
000001d0: e71c 803d f736 913d cd8d 073e b920 613d
000001e0: ab0c 4b3e 6667 383e 5d62 833e 1710 8ebd
000001f0: 3770 febd 319b 143e 60cb a539 ac57 bdbd
00000200: 888a 8e3e 876c 9e3d 1e4d 5b3e f4aa 9e3d
00000210: a468 16be e527 3cbe 8fca 0dbe 0094 cabd
00000220: 9126 62be e862 7f3d 1195 62be 734f 6abd
00000230: 00ca 123d 4ece 76be 2bd6 5ebe 871d aabd
00000240: 4338 01be 390a 98bd a26a e9bd 2dc6 12bc
00000250: c9c1 ebbd 568e 0dbe 6205 dcba 1dfe 933d
00000260: 7d31 94bd 8c58 0ebd 59a3 1ebe 1ac2 cabc
00000270: 5cc0 1abd cfbe 7f3e a996 8cbc ced3 673e
00000280: 4991 a1be 4d5e 9e3d e720 5a3d e036 143c
00000290: 3242 053e 9d7e 3abe 0889 09bc b815 04be
000002a0: daa4 d1bc 81ff 00be 3d31 b9bd 94e7 e2bb
000002b0: 3983 38bd 3648 0f3e 5a8a 37bd fe34 253e
000002c0: 8d19 3ebe 2d2e 713d 82ca aebc 9eb8 0d3d
000002d0: 7fbe 863d 4be3 fabd ec28 e4bd da0a 06be
000002e0: 22e5 18be 2de2 33be cd3e 6a3c db88 d83d
000002f0: 6a59 943b aea6 f0bd 527b d73d 382e 6d3e
00000300: 4288 97bd 5625 273c 691f 4e3d faa2 d6bc
00000310: b0fb e63c 81ef fe3d ef37 723e cdb6 f03d
00000320: c5a7 d5bc 267d 9a3e cbda a93d 0e12 ca3d
00000330: 1a85 b0bd 1017 193d 6ced cb3a 8856 fd3c
00000340: 5cb1 75bd 270d 62be 6c62 c0bd 7d73 713e
00000350: 6890 32be 5266 cd3b 9471 36bd cc20 e33d
00000360: efb2 25be 0bd1 003e b3d7 d8bc 631f ee3d
00000370: 626f ed3d 7228 e63d c06d 813e f029 e03d
00000380: 4258 803d 1f81 0f3d 2eec ab3d 4f1a d1bd
00000390: d030 3dbd ee53 38bb 7eb6 e63d 9382 093e
000003a0: 5c87 143e 4fb2 14be 50d2 0ebe ce8a 113c
000003b0: ff73 1a3d bf3c 0b3e 9659 8e3e 0314 973d
000003c0: 80be ae3c 7d4e c3bc 46c3 cd3c 84c6 7d3b
000003d0: db2c 843d 29f5 6abd f65e d3bd 889a f8ba
000003e0: 44db 083e 3d23 bc3d 3db3 11be 13da 3e3e
000003f0: 2e5d 0cbd 8358 b93d 9b01 8f3c f5a7 98bd

fc3.bias f4 [10]
-0.43764046 -0.42508534 0.056941368 0.3492848 0.4753765 -0.20026824 0.21753642 -0.33379292
0.12627207 -0.24032499
00000000: 6912 e0be c9a4 d9be 5a3b 693d 75d5 b23e
00000010: 8c64 f33e 1e13 4dbe dec1 5e3e e8e6 aabe
00000020: 774d 013e c117 76be
